ChatBot/data.pth (torch, 6015 bytes, 6 tensors)

l1.weight f4 [8, 75]
0	0x3e879c0e	0.26486248
1	0x3ea4951f	0.3214502
2	0xbe2856f5	-0.16439421
3	0xbe853df4	-0.2602383
4	0x3ed10ac2	0.4082852
5	0x3e9c4788	0.30523324
6	0xbdae63db	-0.0851514
7	0x3b989f6f	0.004657678
8	0x3e98e0aa	0.29858905
9	0xbeac5ea0	-0.33665943
10	0xbe568def	-0.20952581
11	0x3ecb437f	0.39699933
12	0xbe8d3a5c	-0.27583587
13	0x3f03733d	0.51347715
14	0xbe69b41e	-0.22822616
15	0xbd90eb8f	-0.07076179
16	0xbe469de3	-0.19396167
17	0x3ecaa9a0	0.3958254
18	0x3dc70cb7	0.09719222
19	0x3eb4de7c	0.35325992
20	0xbe34caef	-0.17655538
21	0x3ebe2955	0.3714091
22	0x3e896b92	0.26839882
23	0xbdc63d83	-0.09679701
24	0xbece2d00	-0.40268707
25	0xbda5f3c7	-0.081031375
26	0xbe63b666	-0.22237548
27	0xbece316c	-0.4027208
28	0x3ed24a70	0.41072416
29	0x3e99cbc6	0.3003828
30	0x3e1de4f6	0.15419373
31	0x3ebd1633	0.36931
32	0x3eb5f0fc	0.3553542
33	0xbe134e87	-0.14385425
34	0x3eb545d4	0.35404837
35	0x3c2d5bfa	0.010581011
36	0x3e11f4be	0.14253518
37	0xbe7b1863	-0.24521022
38	0xbd40abe8	-0.047038943
39	0xbe69c130	-0.22827601
40	0xbeb919df	-0.3615255
41	0x3cbbd0d6	0.02292673
42	0x3e71cf0a	0.23614135
43	0x3eae2ca9	0.34018448
44	0x3ddb964f	0.107220285
45	0xbbf517f0	-0.00747966
46	0xbe86b968	-0.2631333
47	0xbe9006d8	-0.2813022
48	0xbea444fc	-0.3208388
49	0xbe6a821f	-0.229012
50	0xbe48e3af	-0.19618104
51	0x3ec6d68b	0.38835558
52	0x3f02cb9e	0.51091945
53	0x3e09a62c	0.13442296
54	0xbdbcbd3c	-0.09215781
55	0x3db278d8	0.08714455
56	0x3f12b3a2	0.5730535
57	0x3e3e3709	0.18575682
58	0x3e9c0c24	0.30478013
59	0x3ea094af	0.31363437
60	0xbe9ca074	-0.30591166
61	0xbdd280e0	-0.10278487
62	0x3efad74d	0.48992386
63	0xbd92a1bb	-0.07159754
64	0xbe348277	-0.17627893
65	0x3dfaa1e1	0.12237907
66	0xbe1d0469	-0.15333714
67	0xbe397861	-0.18112327
68	0xbece4468	-0.40286565
69	0x3e85b976	0.26118058
70	0xbe00e61a	-0.12587777
71	0xbec855de	-0.3912801
72	0xbe30838f	-0.17237686
73	0x3dfe8ae7	0.12428837
74	0x3f19f601	0.60141
75	0xbe6ed76e	-0.23324367
76	0xbdbec9a2	-0.09315802
77	0x3ed77d04	0.42087567
78	0xbe6d5892	-0.23178318
79	0x3ea7bf46	0.32763118
80	0x3ebf63d4	0.3738085
81	0x3e846258	0.2585628
82	0x3efb551c	0.4908837
83	0x3e4454d9	0.19172992
84	0x3e9ded80	0.3084526
85	0x3efc5df6	0.49290437
86	0x3ea95d13	0.33078822
87	0x3e9e27d8	0.30889773
88	0x3ee748df	0.45172784
89	0xbe41572f	-0.18880914
90	0x3f078348	0.52934694
91	0x3ef304a5	0.4746448
92	0x3ec0b512	0.37638146
93	0x3e886e84	0.26646817
94	0x3eb0ce65	0.34532467
95	0xbe714fdb	-0.23565619
96	0xbd835d3f	-0.0641427
97	0x3edda842	0.43292433
98	0x3e9c1cda	0.30490762
99	0xbed9b013	-0.42517146
100	0xbd945694	-0.07243076
101	0xbe5b2d09	-0.21403898
102	0xbed57174	-0.4168812
103	0x3e9ec358	0.3100841
104	0x3d9c574a	0.076338366
105	0xbe65396d	-0.22385187
106	0xbec29b58	-0.38009143
107	0x3e8e78f8	0.27826667
108	0x3eee2e9c	0.46519935
109	0x3cda77cf	0.026668457
110	0x3ec68e41	0.38780406
111	0xbe85b271	-0.26112702
112	0x3ef29005	0.47375503
113	0x3f1108c2	0.5665399
114	0xbe406dd6	-0.18791899
115	0xbde96e10	-0.11397946
116	0x3d89bb92	0.06725229
117	0xbd476476	-0.04867979
118	0x3eeb6e1a	0.45982438
119	0x3edc1cf3	0.42990837
120	0x3f03e4d6	0.5152105
121	0xbdca44a3	-0.09876373
122	0x3e8b4fa9	0.27209213
123	0x3e9b76b8	0.30364013
124	0xbd993d72	-0.07482423
125	0xbcf10fa8	-0.02942641
126	0x3edd56e4	0.43230355
127	0xbe99a0fb	-0.3000563
128	0x3f1c55da	0.610685
129	0xbd9ab661	-0.07554317
130	0x3eb476a3	0.35246763
131	0xbee42862	-0.4456206
132	0xbe439547	-0.19099914
133	0xbeed813e	-0.46387666
134	0x3ee0106a	0.43762523
135	0x3f4d0f84	0.801018
136	0x3ec5dda3	0.38645658
137	0x3e9a3c8c	0.3012432
138	0x3eda9b39	0.4269655
139	0x3eeec875	0.46637312
140	0xbdcc81dd	-0.09985707
141	0x3ec95797	0.39324638
142	0xbe577942	-0.2104235
143	0xbe63b989	-0.22238745
144	0x3e87c600	0.2651825
145	0x3d943517	0.072366886
146	0x3e8354d3	0.25650653
147	0xbc97202e	-0.018447962
148	0x3ef9f10a	0.4881671
149	0x3e54c128	0.20776808
150	0xbe9b3d0c	-0.30320013
151	0xbdbff1dc	-0.09372303
152	0x3ef6eeca	0.48229057
153	0x3eb5d17e	0.35511392
154	0xbe9da6ce	-0.30791324
155	0xbec76275	-0.38942304
156	0x3e58b0c4	0.2116118
157	0x3ed918bb	0.4240168
158	0x3e911eca	0.28343803
159	0x3ea7285b	0.32647976
160	0x3ed5387f	0.41644666
161	0x3e0b7fab	0.1362292
162	0x3e66ba0e	0.22531912
163	0x3e4b0b56	0.19828543
164	0xbe9337a0	-0.28753376
165	0x3f151b7c	0.5824506
166	0x3ed1178b	0.40838274
167	0xbe714b31	-0.2356384
168	0x3ed134a8	0.40860486
169	0x3e12ba91	0.14328982
170	0xbeba8649	-0.36430576
171	0x3f6e51c8	0.9309354
172	0xbd5d6ba8	-0.054057747
173	0x3ed6f3a8	0.4198277
174	0xbef61512	-0.4806295
175	0x3e980a3b	0.29695305
176	0xbe91bcb6	-0.28464288
177	0xbf26c64f	-0.65146345
178	0x3e675b56	0.22593436
179	0x3e12028e	0.14258787
180	0xbe5cb820	-0.21554613
181	0xbf0cd880	-0.5501785
182	0xbe718d9f	-0.2358918
183	0x3e91dc71	0.28488496
184	0xbcab9f31	-0.020949932
185	0x3ec76ac6	0.3894865
186	0x3e9012ca	0.28139335
187	0x3ece5be4	0.40304482
188	0x3ed4feaa	0.41600543
189	0x3e908cc5	0.282324
190	0x3e862e91	0.26207402
191	0x3f03fd25	0.5155814
192	0xbe9e07c2	-0.30865294
193	0x3dc7beca	0.09753187
194	0x3f0ead43	0.55733126
195	0x3e90d603	0.28288278
196	0x3d968342	0.07349254
197	0x3e43795a	0.1908926
198	0x3e60ef14	0.21966201
199	0x3eba10fc	0.36341083
200	0x3e822773	0.25420722
201	0x3dce005e	0.10058664
202	0xbeb99d2b	-0.36252722
203	0x3f1fcc21	0.6242085
204	0x3eaa7e1b	0.33299336
205	0x3ec95087	0.3931925
206	0xbf18a040	-0.5961952
207	0xbe055b71	-0.13023163
208	0x3e92b262	0.2865172
209	0x3d4b951d	0.049702752
210	0x3f052f77	0.5202555
211	0x3eace752	0.33770233
212	0x3e6ea04f	0.2330334
213	0x3e7ac43c	0.2448892
214	0x3ed8f2d3	0.4237276
215	0x3e44193c	0.19150251
216	0x3ea11013	0.31457576
217	0xbebbef14	-0.3670584
218	0x3d55f8dd	0.052239288
219	0x3e86c9b0	0.2632575
220	0x3e896ff9	0.2684324
221	0x3e83cc5a	0.25741845
222	0x3eebec59	0.46078756
223	0x3f2c2ca7	0.67255634
224	0x3e5f5dab	0.21813075
225	0xbdfd5abe	-0.12370823
226	0x3e69164d	0.22762413
227	0xbebfff05	-0.37499252
228	0x3f262866	0.64905393
229	0xbe99206c	-0.29907548
230	0xbea2a1b9	-0.3176401
231	0xbe29cabe	-0.16581246
232	0x3e90445e	0.2817716
233	0xbb8f46c4	-0.0043724496
234	0x3f0db36b	0.55351895
235	0x3e539212	0.2066119
236	0xbecfa95b	-0.40558895
237	0x3edfc57f	0.43705365
238	0xbe8673e9	-0.26260307
239	0x3f0522a9	0.5200601
240	0x3e66013b	0.22461407
241	0x3e7c129a	0.24616471
242	0xbe98749c	-0.29776466
243	0xbe8d8039	-0.2763689
244	0x3be37f5d	0.006942673
245	0x3ed61589	0.41813305
246	0x3e210047	0.15722762
247	0xbe567732	-0.20943907
248	0xbe4845df	-0.19557904
249	0x3f1fb063	0.6237852
250	0x3ed9fa81	0.42573932
251	0x3ed92236	0.42408913
252	0x3efa109c	0.48840797
253	0x3dbb0146	0.09131102
254	0x3e1ffd69	0.15624012
255	0xbce18091	-0.027527126

l1.bias f4 [8]
0	0x3ece2602	0.40263373
1	0x3ed9513e	0.42444795
2	0x3f26c435	0.6514314
3	0x3f811322	1.0083964
4	0x3ea7e5d9	0.32792547
5	0x3f5fa4f5	0.8736108
6	0x3f3db6e5	0.741072
7	0x3f0ebc5c	0.55756164

l2.weight f4 [8, 8]
0	0xbf5f63d0	-0.87261677
1	0x3f7e6398	0.9937072
2	0x3f5e7caa	0.8690897
3	0x3e9a7da2	0.30173975
4	0xbf90a4e7	-1.1300324
5	0xbf056b87	-0.521172
6	0xbe266352	-0.16248825
7	0x3d4c1fed	0.049835134
8	0x3ee3991b	0.44452748
9	0x3f879a3b	1.0593942
10	0x3f22149e	0.6331271
11	0xbf242135	-0.6411317
12	0x3e9c9793	0.30584392
13	0x3f083a1e	0.5321368
14	0x3f9200f3	1.140654
15	0xbef270b7	-0.4735162
16	0x3f4527d2	0.77013886
17	0xbe1a3cbe	-0.15062234
18	0xbf2e7a14	-0.68155026
19	0x3d904b06	0.070455596
20	0x3e853bb4	0.26022112
21	0x3fa7bb38	1.310401
22	0x3f42479e	0.7589053
23	0x3ca0c986	0.019627344
24	0xbf839dee	-1.0282571
25	0x3eb46ac9	0.3523772
26	0xbe610fcc	-0.21978682
27	0x3f65e8ba	0.8980824
28	0xbf56b783	-0.83873767
29	0x3f4ccae4	0.79997087
30	0x3f3a0dcf	0.7267732
31	0xbf39a540	-0.72517776
32	0x3f051b7d	0.5199507
33	0xbf54c0bf	-0.8310661
34	0xbf2ee0c8	-0.6831174
35	0x3eeaa83c	0.45831478
36	0xbed786ba	-0.42094976
37	0x3f9ee08e	1.2412279
38	0x3f1082d7	0.56449646
39	0x3e9bbe6e	0.30418724
40	0xbf46e9da	-0.7770058
41	0x3d0b901e	0.034072988
42	0x3f3fdc90	0.74945927
43	0x3f8a7b56	1.0818889
44	0xbf0e8d41	-0.55684286
45	0x3f57c436	0.8428377
46	0x3f068ccd	0.52558595
47	0xbf18e7e0	-0.59728813
48	0xbee9dcad	-0.45676175
49	0x3e8b02dc	0.2715062
50	0x3fabd939	1.3425666
51	0x3f842390	1.0323353
52	0x3dde61af	0.108584754
53	0xbdd3e4cb	-0.10346373
54	0xbe3a9176	-0.18219551
55	0x3f8b6de0	1.0892906
56	0xbe541c00	-0.20713806
57	0x3ea5c918	0.32379985
58	0x3f053df0	0.52047634
59	0xbf5a4d32	-0.8527404
60	0xbee93430	-0.45547628
61	0x3d206b66	0.039164923
62	0x3e98ffc9	0.2988265
63	0x3f3cbf9d	0.7372988

l2.bias f4 [8]
0	0x3e781ea9	0.24230446
1	0xbd80d3c7	-0.06290393
2	0x3dd8d2ad	0.10587058
3	0xbcecff3e	-0.028930303
4	0x3ef475f7	0.4774625
5	0x3f03d81d	0.5150164
6	0x3f25a761	0.64708525
7	0xbe3b80d9	-0.1831087

l3.weight f4 [8, 8]
0	0xbf4e98bf	-0.8070182
1	0x3f75234b	0.9575698
2	0x3f19f296	0.6013578
3	0xbecf11d5	-0.40443292
4	0xbf88896a	-1.0666935
5	0xbf288f09	-0.65843254
6	0xbf86d714	-1.0534387
7	0xbe84e5d7	-0.25956604
8	0xbf9c8a21	-1.2229654
9	0x3de4ec75	0.11177913
10	0xbe63a65a	-0.22231427
11	0xbfc6213a	-1.547889
12	0xbd95ba95	-0.07310978
13	0x3ef3d4f1	0.476234
14	0x3ea421b3	0.3205696
15	0xbeccc173	-0.3999134
16	0xbf8b7437	-1.0894841
17	0xbf654cf0	-0.8957052
18	0xbdba9bb1	-0.09111727
19	0x3f544fc7	0.8293423
20	0x3ef2e7fe	0.4744262
21	0x3f0b58c2	0.5443231
22	0xbf20bf85	-0.62792236
23	0xbf11311f	-0.5671558
24	0xbf3ee895	-0.7457364
25	0xbf75cc5c	-0.9601495
26	0xbfbcb13b	-1.4741586
27	0xbfb22675	-1.3917986
28	0xbfc74f7f	-1.5571135
29	0xbf836674	-1.0265641
30	0x3f689550	0.9085283
31	0x3ec03f97	0.37548515
32	0x3f622f6c	0.8835361
33	0xbfa7b56a	-1.3102238
34	0xbff01f08	-1.875947
35	0xbd6f4833	-0.058418464
36	0xbf9edb2d	-1.2410637
37	0x3e833b1a	0.25631028
38	0x3e5fd2c7	0.21857749
39	0xbf850d3a	-1.0394661
40	0x3e44a704	0.19204336
41	0x3e746c12	0.2386935
42	0xbf9409ae	-1.1565454
43	0xbf99d13f	-1.2016982
44	0xbf7f713f	-0.99782175
45	0xbca687ef	-0.02032849
46	0xbe831b28	-0.25606656
47	0x3f7b2f29	0.98118836
48	0xbed68a2b	-0.4190229
49	0xbe137d89	-0.14403357
50	0x3f2617f2	0.6488029
51	0xbfa6e164	-1.3037534
52	0x3f8be7a6	1.0930068
53	0xbf70507d	-0.93872815
54	0xbf96aa6b	-1.1770757
55	0x3d565eb9	0.05233643
56	0x3d91b42d	0.07114444
57	0x3dffdeac	0.12493643
58	0xbf49fa72	-0.78897774
59	0x3ede9609	0.43473843
60	0xbf8d39df	-1.1033286
61	0x3e81326e	0.25233787
62	0xbe752a18	-0.23941839
63	0xbeb69975	-0.35663953

l3.bias f4 [8]
0	0x3b1efdc7	0.002426015
1	0x3d5f34f8	0.054493874
2	0xbec9945b	-0.39371
3	0x3f4d7f3b	0.80272263
4	0xbe8dbc66	-0.276828
5	0xbec37fb9	-0.38183382
6	0x3e97ed91	0.29673436
7	0xbf20df24	-0.62840486
