ChatBot/data.pth (torch, 6015 bytes, 6 tensors)

l1.weight f4 [8, 75]
000000 20 bb a7 bc 4d 06 83 bd be ec 86 3d 93 dd eb be
       -0.02047497 -0.06397686 0.06588124 -0.46067485
000010 8e 9c 36 3d e9 4c b8 3d 25 a5 81 bd 85 b3 b3 3e
       0.044582896 0.089990444 -0.06330327 0.350979
000020 f6 70 06 be b2 00 19 bd 2d dd dc 3e 99 c3 9f 3e
       -0.13129029 -0.03735418 0.43137494 0.31203917
000030 d0 83 3c 3d f7 82 a7 3e 40 1b 89 be 01 47 e6 3d
       0.046024144 0.32717106 -0.26778603 0.11244012
000040 35 c5 bd 3e ea 7e 6b 3d 06 58 1f be 02 f4 65 3e
       0.3706452 0.05749408 -0.15560922 0.22456363
000050 f4 a9 08 be 5e 9e 0c 3f 56 ed 33 3d 61 98 00 be
       -0.13346082 0.5492915 0.043927513 -0.12558128
000060 fe 63 cd be 83 31 80 3e 72 63 43 be 92 83 c3 be
       -0.4011535 0.25037774 -0.19080904 -0.38186318
000070 1d bc 98 3e d2 0b 5a be 41 63 58 3b 0d fc 04 be
       0.2983102 -0.21293572 0.0033018144 -0.12986775
000080 eb ca c9 3b 73 1e bd 3e 47 cd 25 bd b2 cb a6 be
       0.006158223 0.36937293 -0.04047897 -0.32577282
000090 f9 bb 95 3e c7 54 e7 3e ef c1 4b bb 2d a2 df bd
       0.29244974 0.45181867 -0.0031090935 -0.109196045
0000a0 92 57 2d 3f c7 16 40 3e 7b ed 80 3d 54 76 73 3e
       0.67711747 0.18758689 0.06295296 0.23775607
0000b0 23 6e 8f be 3e 95 6c 3e 4d b2 af 3e e3 fa ad 3e
       -0.28013715 0.23103806 0.3431572 0.33980474
0000c0 93 3e ce bd a2 1f 55 be f2 45 9b be 2b 8e ac 3e
       -0.10070529 -0.20812848 -0.30326802 0.33702216
0000d0 f7 75 b4 bd e2 6b b6 be b3 d0 8c 3e 2f af eb bd
       -0.088115625 -0.35629183 0.27502975 -0.11508023
0000e0 df e5 10 be f8 c9 c7 3c 75 88 00 3f ab de 93 3e
       -0.14150189 0.024388298 0.50208217 0.2888082
0000f0 c3 36 36 3f d7 8d f1 bd 98 55 58 3e c3 2f be 3e
       0.7117731 -0.11794632 0.21126401 0.37145814
000100 b0 a7 01 be 6d 45 7b 3e 74 14 05 3f 82 3b 59 be
       -0.12661624 0.24538203 0.51984334 -0.21214107
000110 16 c7 99 3e 6b 14 bb 3a 25 da ca 3e ed 43 b6 bd
       0.30034703 0.0014273053 0.39619556 -0.088996746
000120 6c dc ef 3d 44 1d 80 3e 0b 90 07 be a2 82 a7 bd
       0.11711964 0.25022328 -0.13238542 -0.08179213
000130 e6 72 c5 be 79 98 4c be c8 04 c7 be 13 12 8c 3e
       -0.38564223 -0.19980039 -0.38870835 0.2735754
000140 65 71 3f 3e 08 2b 55 be e1 6c 93 3e d5 24 19 3e
       0.186956 -0.20817196 0.28794006 0.14955457
000150 9e 39 09 be 20 e5 61 3e 4f 0d 76 3e 28 ca 20 be
       -0.13400885 0.2206006 0.24028514 -0.15702116
000160 6c 8d 86 3e b7 4f ce 3e bd 7b cf 3d 19 1d 75 3e
       0.2627977 0.40295193 0.10131023 0.23936881
000170 50 c1 7a 3e 29 22 c5 bd 0f 00 09 3e 15 75 0e 3f
       0.24487805 -0.09625656 0.13378929 0.55647403
000180 3f 58 23 bf 74 57 32 3e 3a d7 26 be 4c 38 39 3f
       -0.6380653 0.17416173 -0.1629304 0.7235153
000190 3a d6 33 bd f6 47 b7 3e bc a6 40 3f dc c9 8c 3e
       -0.043905474 0.3579709 0.75254416 0.27497756
0001a0 82 d8 8c 3e 4c 9f 83 bd 1a 34 cf be b9 36 88 3e
       0.27508932 -0.06426868 -0.40469438 0.2660425
0001b0 52 45 f1 3e 2c d5 a7 3e ba 1a ab be fd 7b 74 be
       0.471232 0.32779825 -0.33418828 -0.23875423
0001c0 f0 4b de 3d 49 c6 27 be 81 ac 43 be fa 1e 1f 3f
       0.10854328 -0.16384234 -0.19108774 0.6215664
0001d0 da 71 1b 3e d4 1f d9 bd 6c 88 46 3e 07 da 9b be
       0.1518015 -0.10601774 0.19387978 -0.3043978
0001e0 45 37 89 3e bc 74 a4 3e 6c 0f 8f 3e a6 0e 43 be
       0.2679998 0.3212031 0.27941453 -0.19048557
0001f0 7b ab 19 be 97 18 a0 be 75 7f ac 3e 00 a3 0d bf
       -0.15006821 -0.3126876 0.33690992 -0.55326843
000200 bf ca 64 be 45 56 8c 3e 4f e9 b8 bd ee 22 ed be
       -0.22342966 0.27409568 -0.09028875 -0.46315712
000210 f0 42 af 3b df 63 a8 be dd e1 8b 3e 50 ab 01 3f
       0.0053485557 -0.32888696 0.27320758 0.5065203
000220 d1 af 11 be 29 77 29 3e 26 71 87 3e 6c 71 19 be
       -0.14227225 0.16549362 0.26453513 -0.14984673
000230 d7 58 9b bd 3d 0a 90 3e c6 06 0a 3f 1f 78 63 3e
       -0.07585304 0.2813281 0.53916585 0.22213791
000240 3e 2f e9 3c dd 71 c2 3e 68 d1 4b be 13 71 02 3e
       0.02846491 0.37977496 -0.19904101 0.12738447
000250 06 9b 2c bd a4 cb 94 3c d9 53 16 be ea 2d 2b be
       -0.04214003 0.01816351 -0.14680423 -0.16716734
000260 b8 0d ea 3e a7 33 ec be 9b 00 81 be df aa a6 be
       0.45713592 -0.46133158 -0.25195774 -0.3255224
000270 1e 84 a3 3e d0 b5 8c 3e d0 07 4b 3e 64 e1 62 3d
       0.31936735 0.27482462 0.19827199 0.05539073
000280 c2 5a d9 3e b4 ec 4a be 18 39 a6 3c 39 2a be be
       0.42452055 -0.19816858 0.020290896 -0.37141588
000290 8f 42 65 be 71 18 95 3e c4 32 a1 3e 6b 4d b4 be
       -0.22388671 0.2912021 0.31484044 -0.35215315
0002a0 17 e9 9a 3e f7 07 ee 3d 15 aa 60 be 68 fd 3d 3f
       0.30255958 0.11622613 -0.21939881 0.7421479
0002b0 62 9e 1e 3e 14 32 c0 3e 35 bf e2 be 0d de 18 3e
       0.15490106 0.37538207 -0.44286504 0.14928456
0002c0 5c c0 3b be 38 d0 e2 be 40 17 0f 3e cc 15 8a bd
       -0.18335098 -0.44299483 0.13973713 -0.06742439
0002d0 8b 7e 17 be 35 39 3d be 51 74 ce be 99 81 b3 3e
       -0.14794366 -0.18478854 -0.40323117 0.35059813
0002e0 ad 9b 31 be f9 19 9e 3e 38 9f cb 3e 08 d7 9e 3e
       -0.17344542 0.3087919 0.39769912 0.3102343
0002f0 76 64 e3 3e f9 18 48 be 17 40 c0 3b 58 df f2 3d
       0.44412583 -0.19540776 0.005867015 0.11859006
000300 9d 5b 14 be 23 06 8e bd 1d da a1 3e 0b c1 d2 3e
       -0.14488073 -0.06934764 0.3161172 0.41162905
000310 de 70 42 3d ec ca 09 3d b0 4e 9c bd 1d c7 bb be
       0.04747092 0.033640787 -0.07632196 -0.3667535
000320 b6 9a b7 be 3e c6 ec bd 26 0b 96 be 83 a5 f9 3e
       -0.35860223 -0.11561249 -0.2930538 0.48759088
000330 87 b2 97 bc be 79 94 3e 97 a5 bb be 80 99 b3 bd
       -0.018517746 0.28999132 -0.36649773 -0.08769512
000340 4f 48 90 3e bc 12 ba bc 39 d6 1a 3f e6 0a 60 3e
       0.28180167 -0.022714011 0.6048313 0.21879157
000350 44 ec 56 be 56 89 9d 3e e0 9a 95 3e 6d 6b 2d 3e
       -0.20988566 0.30768842 0.29219723 0.16935511
000360 46 9a cb 3e f9 fb 84 be da 94 51 bd 79 c6 90 3e
       0.3976614 -0.2597349 -0.051167347 0.28276423
000370 52 0b 07 3e c5 fa 7a 3c 73 eb 01 3e 98 24 ee 3e
       0.13187912 0.015318577 0.12687473 0.46512294
000380 d3 cd d9 3d 6d 8f da 3e 04 d2 1b 3f 94 73 c4 3e
       0.10634961 0.4268755 0.60867333 0.3836943
000390 5b 70 87 bd 26 a0 a6 be d9 42 f2 bd a3 5d b6 3e
       -0.06613227 -0.3254406 -0.118291564 0.35618314
0003a0 0c d6 3f be ca 3f 4f 3e 86 2c 9a be 90 84 6e be
       -0.18733996 0.20239177 -0.30112094 -0.23292756
0003b0 0d 34 c0 be bc 93 8c be 5b 48 c9 be 05 b0 28 be
       -0.37539712 -0.27456462 -0.39313015 -0.16473396
0003c0 4c f6 03 3d 00 a4 ef bd 4e 78 a4 be 91 a7 9a 3e
       0.03221731 -0.117012024 -0.32123035 0.30205968
0003d0 c8 38 4b 3d 8c 2f 24 be a2 73 04 3f 40 77 76 3e
       0.049614698 -0.16033763 0.5173894 0.24068928
0003e0 5e 33 72 3e 2f 21 9f be 49 00 99 3e 00 59 0d be
       0.23652408 -0.31080005 0.2988303 -0.13803482
0003f0 85 61 b1 be f0 6f 44 3e 6e fb bd 3e f8 00 a7 3e
       -0.34644714 0.19183326 0.37105888 0.32617927

l1.bias f4 [8]
000000 06 62 cd 3e 61 5a 24 3f ff cc e2 3e 42 27 d6 3e
       0.40113848 0.6420041 0.44297025 0.41826826
000010 ec 07 35 3f f5 90 66 3f 5f 36 f3 3e 71 56 df 3e
       0.7071521 0.90064937 0.4750242 0.43620637

l2.weight f4 [8, 8]
000000 df 9c 38 bf bd 83 1a 3f 32 6f 49 bf d9 ea 2e 3f
       -0.72114366 0.60357267 -0.78685296 0.683271
000010 c1 12 64 3e 69 90 93 3f 0d ff f9 3e 03 ec 20 bf
       0.22272779 1.1528445 0.488274 -0.62860125
000020 fb e0 8e 3f 37 06 42 3e f4 88 2c 3f f8 15 92 3e
       1.1162409 0.18947683 0.67396474 0.28532386
000030 aa fd f4 be 77 e6 dd 3e 7b 1c 01 bf b8 a7 82 3f
       -0.4784978 0.43339893 -0.5043408 1.0207434
000040 59 3a f5 3e 7d 35 99 be ef 1f 6b 3e e3 aa a7 3e
       0.47896078 -0.2992362 0.229614 0.32747564
000050 6b 1e d4 3d f8 a0 07 bf 58 1f 2e be 33 05 93 3f
       0.10357364 -0.52979994 -0.17004144 1.1485962
000060 ad 52 60 3e 68 59 d3 3e e9 22 59 3f f8 b6 7c 3f
       0.21906538 0.4127915 0.84818894 0.9871669
000070 57 a7 45 be f3 02 ea 3e 5d 56 17 be f4 d4 ab 3d
       -0.19302116 0.45705375 -0.14779039 0.08390227
000080 dc 12 36 bd b3 db c5 be 92 c6 a9 3e 24 43 46 be
       -0.04445158 -0.3864418 0.3315931 -0.1936155
000090 7e be aa 3f ec 82 4a bf b5 93 aa 3f d9 b4 3a 3f
       1.3339384 -0.7910602 1.3326327 0.729322
0000a0 60 a3 49 3f 95 a6 77 bf e0 ef 59 3f 31 d3 3e 3f
       0.78764915 -0.9673856 0.85131645 0.74541
0000b0 f9 b3 0a 3f e1 71 ea 3e b6 8e bc bc 51 88 b9 3e
       0.54180866 0.45790008 -0.023017269 0.36236814
0000c0 86 4f 58 3f b7 46 92 3f b2 ce 82 be d1 81 1d bd
       0.84496343 1.142783 -0.2554832 -0.03845388
0000d0 33 c2 e3 3d 4e ab d1 3e 8f 8a 53 be 6c f3 9a 3d
       0.11121025 0.40951008 -0.20658325 0.0756596
0000e0 94 12 ef 3e f2 0e 35 3f 73 7f 3e 3f 82 39 51 bf
       0.4669386 0.7072593 0.7441322 -0.81728375
0000f0 76 09 4d 3f dc 25 5a 3f a8 c8 61 bc e7 90 a1 bf
       0.8009256 0.8521402 -0.01378075 -1.2622346

l2.bias f4 [8]
000000 c1 cb 3d 3f 42 d1 c1 be b7 0f a7 bd 60 07 5c bd
       0.7413903 -0.37854964 -0.08157294 -0.05371797
000010 36 9a e0 3e 03 32 06 3e 86 bc 47 3e f4 01 b4 3e
       0.43867654 0.13105015 0.1950551 0.3515774

l3.weight f4 [8, 8]
000000 79 13 ec bd 95 ff 87 bf 70 07 9d bf fa b1 6b bf
       -0.115271516 -1.0624872 -1.2267895 -0.92068446
000010 b8 18 eb 3e 1b d8 81 bf 8a 52 50 3e 9d 2d 34 3e
       0.45917296 -1.0144075 0.20343986 0.17595525
000020 26 5c d0 bf a5 82 5d bd be 60 2e 3f 00 5b d2 3d
       -1.6278121 -0.05407967 0.68116367 0.10271263
000030 73 3b e2 bd bd e1 0e 3f 89 81 dd be 30 1a c2 be
       -0.11046495 0.558132 -0.4326289 -0.37910604
000040 c0 11 59 3f 7e 40 8c bf dc 93 c5 be 44 c4 92 be
       0.8479271 -1.0957181 -0.3858937 -0.28665364
000050 31 52 8c bf ef c0 cf bf a6 a9 b8 3e 99 60 2a 3f
       -1.0962583 -1.6230754 0.3606693 0.66553646
000060 a3 fc ef be 59 a5 14 3f 32 83 11 3e cd 97 df 3e
       -0.46872434 0.580648 0.14210203 0.43670502
000070 6e 44 78 bf 76 5f 02 bf d8 58 d0 3e 19 99 62 bf
       -0.96979415 -0.5092691 0.40692782 -0.8851486
000080 70 02 3d bf cd fd c2 bf 0b ed 44 3f 99 4b 98 bf
       -0.73831844 -1.5233704 0.769242 -1.189807
000090 50 67 30 3f 6c 06 f2 bc 35 fe 47 bf 2d 47 8c bf
       0.6890764 -0.029544078 -0.78122264 -1.0959221
0000a0 f0 d7 28 bf 40 45 a3 bf 3b de a4 bf d9 06 b4 3e
       -0.65954494 -1.2755508 -1.2880319 0.35161474
0000b0 6d 17 99 3c c6 e2 08 3f 3b f5 9e bf ca 3b c4 3d
       0.018687928 0.5347103 -1.2418588 0.09581716
0000c0 a1 b1 29 3f 5a 1e 09 bf 4e 67 9a bf af d7 90 3e
       0.66286665 -0.5356194 -1.2062776 0.28289554
0000d0 38 92 4d bf 8f 35 30 3e 5e 0a ab be b4 b5 8a bf
       -0.8030124 0.17207931 -0.33406347 -1.0836701
0000e0 d5 97 8e bf ae 7b bf 3c 22 5c a2 bf d3 0a 3a 3e
       -1.1140085 0.023374405 -1.2684367 0.18168192
0000f0 b2 5f 54 bf f7 e1 47 3d a8 ad 92 3e 71 b5 18 3f
       -0.8295852 0.04879948 0.28648114 0.5965186

l3.bias f4 [8]
000000 c5 6a 12 bd 73 a8 ea 3e 54 3b 06 3f 77 bc 6e be
       -0.035746355 0.45831642 0.5243428 -0.23314081
000010 05 4c ae 3e 03 a9 e7 be cd 8f 83 3e c4 2a c6 be
       0.34042373 -0.45246133 0.2569565 -0.38704503
